hw1/weight.npy (npy, 1432 bytes, 1 tensors)

array f8 [163, 1]
21.37402689313543 3.5888890925024044 4.563863234804144 2.1630702344290818 -6.585452226042751 -33.88855796364393 32.223551835604134 3.4934035376668677
-4.603086712512557 -1.0237475402930196 -0.39679150079981806 -0.10690879964238552 0.22248818380365432 0.08996341171060165 0.13124310474353573 0.0215894989086006
-0.1528672632353552 0.04540877760197964 0.5209992347395689 0.16082421322780577 -0.03177094510517022 0.012852902531184847 -0.17683943741966324 0.17124137075919013
-0.13119003219179018 -0.03516144512854857 0.10082619213699234 0.34501825687749715 0.040013031521454495 0.025433138189017736 -0.5044252192391234 0.3714830180121991
0.8463576714149966 -0.8119204283773862 -0.08002175749060697 0.15273771113900508 0.2649151295931989 -0.05198604160613888 -0.2519883152451531 0.38524651671585336
0.16543145053553557 -0.0783633313567822 -0.2894572311670113 0.17761502290860176 0.3225069484975709 -0.4599552562812 -0.03486353577491856 -0.5817643631630208
-0.06433945281911395 -0.6328769491442992 0.06366245073949264 0.08315925061094617 -0.445157960804659 -0.23452636599041668 0.9866085935437534 0.26523065173030247
0.03519380930291247 0.3074643343743517 -0.104311238771249 -0.06491669008687968 0.21122475662972187 -0.24315981452546162 -0.13128560352315308 1.0904581049936375
-0.0397913709648128 0.9195636776090761 -0.9448241496297619 -0.5041377347809586 0.6812729394853728 -1.3449482846931622 -0.26800954221052126 0.04362043424481981
1.89619513108881 -0.3418738731384098 0.18916246123536437 0.017325126789596502 0.3144319298839578 -0.3408284674228143 0.49238565109154625 0.09296342135774034
-0.4509835887739589 1.4745658441341893 -0.03034172364435336 0.0771229328213055 0.638314494193516 -0.7932870865919316 0.8828775058257633 3.1896560979993804
-5.756717060862833 1.6074894460610423 13.614243957707599 0.1500291108151197 -0.047838960305755684 -0.06294637545013379 -0.028538303243429493 -0.301562820547387
0.41205801250050406 -0.06775341543761633 -0.100985479254893 -0.16897297303186304 1.6409323300958771 1.8967037114050262 0.39471381591021953 -4.712314493256501
-7.427607743379604 6.1978193579587275 3.53986244333612 -0.956245861115494 -1.043727918766501 -0.4928637133324897 0.6316087902931773 -0.4851759563005845
0.2584002162275419 0.09438467948938013 -0.12932318383850017 -0.3812352865347016 0.3868194792911338 0.40421162711453185 0.3755689143966098 0.18351226133169812
-0.08014177080835004 -0.3101885970926866 -0.39612461160582135 0.3662278531387106 0.17948859318475766 -0.31447705109700314 -0.23761144257701902 0.03970761038981714
0.13877591197815592 -0.03840150685139471 -0.05475571187078545 0.4199752073910979 0.4461206868147851 -0.4310748262641785 -0.08744507678041341 -0.0569534264240735
-0.07239801574660013 -0.013988012817767006 0.14048965847716624 -0.24495233380113193 0.18364677010690972 -0.16413551177847674 -0.07412164515080276 -0.09714142127264246
0.01988290414036108 -0.44696591934994845 -0.2634409586201925 0.15292404306147311 0.06525328467576415 0.7068182662473355 0.09737570513034752 -0.3356877874718919
-0.22655916497326276 -0.300117085840021 0.12418523099679346 0.41887234352115377 -0.25189194591152325 -0.1290957310210024 -0.5575124713388755 0.08762395819820759
0.30259490164560526 -0.4234631595429969 0.4899220511162668
00000000: 56d7 f939 c05f 3540 cd26 0a7c 0bb6 0c40
00000010: 2e9a 235d 6541 1240 7897 5ec4 f74d 0140
00000020: 64e5 d0c9 8057 1ac0 bc39 7144 bcf1 40c0
00000030: b570 b758 9d1c 4040 4714 d08d 7df2 0b40
00000040: 0893 2b90 8f69 12c0 11b4 ce19 4561 f0bf
00000050: c205 d12d 0865 d9bf a760 1e06 605e bbbf
00000060: e070 9728 7e7a cc3f c234 2297 d707 b73f
00000070: 7478 59f5 92cc c03f 5974 ffbe 8e1b 963f
00000080: aac8 1c8c 2791 c3bf 27f1 80bd d13f a73f
00000090: b851 4e96 06ac e03f 1af3 1b48 e395 c43f
000000a0: a322 6104 4844 a0bf b1ac 3d60 9f52 8a3f
000000b0: 9c24 2eb8 aca2 c6bf ed03 91bb 3ceb c53f
000000c0: 2d97 e9c0 d5ca c0bf 6f7e d051 ae00 a2bf
000000d0: 0c00 cfcd becf b93f 29f4 7374 c714 d63f
000000e0: 4cd0 988b 967c a43f a7a2 0603 250b 9a3f
000000f0: fa1b 7d5b 4024 e0bf fc6e 58b5 60c6 d73f
00000100: a746 eeae 5c15 eb3f d4b9 da8c 40fb e9bf
00000110: 5cfe 634f 4e7c b4bf 2e9d 1ac9 e88c c33f
00000120: 8560 7496 5ef4 d03f 45fe 1719 ea9d aabf
00000130: baee 3c99 9320 d0bf 0b52 8c01 e1a7 d83f
00000140: f5d5 e396 db2c c53f b00b 6289 9e0f b4bf
00000150: 5efe 5c9f 7786 d2bf a8da 55cd 16bc c63f
00000160: a0e8 212f f4a3 d43f a577 d62b e86f ddbf
00000170: a6d0 f323 a2d9 a1bf 1d6e 384c d09d e2bf
00000180: 735c b3e5 8c78 b0bf d4f1 de28 8740 e4bf
00000190: fac9 e8af 2e4c b03f aedf bbb5 ec49 b53f
000001a0: a171 cdd0 777d dcbf a941 fdbf f504 cebf
000001b0: a222 672f 4c92 ef3f c004 c5fb 89f9 d03f
000001c0: 1d91 f447 ec04 a23f 80c0 34e3 7ead d33f
000001d0: fdb4 202f 24b4 babf 5541 e354 619e b0bf
000001e0: 7944 eaae 6909 cb3f df4c 8b5d dc1f cfbf
000001f0: f7a5 c876 f7cd c0bf 63b1 a932 8472 f13f
00000200: 83eb e9d9 885f a4bf 7c74 3dce 106d ed3f
00000210: d32f e4da ff3b eebf 260a 7275 e521 e0bf
00000220: afa9 57e8 fccc e53f 4918 197e e884 f5bf
00000230: 03d9 b37e 1127 d1bf b7a2 09e5 6a55 a63f
00000240: 22c6 adb4 d056 fe3f ea1f 1ff4 42e1 d5bf
00000250: 4781 51bc 7936 c83f 5a6b d793 adbd 913f
00000260: 69dd ea19 a71f d43f 4f1d 4834 22d0 d5bf
00000270: 8b4d 1d1b 3f83 df3f ddac 7466 73cc b73f
00000280: 8947 3445 eadc dcbf fcad c55a d297 f73f
00000290: 17ee 069b e611 9fbf 7436 3d1a 54be b33f
000002a0: 43f7 a384 126d e43f 030c a899 9b62 e9bf
000002b0: 99a9 bc53 8840 ec3f 8c27 936a 6a84 0940
000002c0: a8ec 52d6 e006 17c0 13f5 77da 46b8 f93f
000002d0: 4f3d 1c2f 7e3a 2b40 1f0f 3366 2734 c33f
000002e0: 28c9 f923 597e a8bf 9ec6 f5ef 401d b0bf
000002f0: d297 741c 2539 9dbf df31 fc24 ce4c d3bf
00000300: a5a4 ef91 285f da3f 7532 7faf 4958 b1bf
00000310: 7149 c532 2fda b9bf fa34 8a08 e8a0 c5bf
00000320: b85f 4b42 4241 fa3f 89fb aafd e558 fe3f
00000330: cd47 a7bc fd42 d93f 9103 74f8 68d9 12c0
00000340: b953 e5cd deb5 1dc0 37cb 6328 91ca 1840
00000350: 02bd 9366 a351 0c40 1ca5 8deb 9099 eebf
00000360: 6563 d00b 1cb3 f0bf 7e7b 893e 148b dfbf
00000370: 369c 45a3 2336 e43f 5275 4774 1f0d dfbf
00000380: f580 7e0f a189 d03f 017c a627 9829 b83f
00000390: dcb8 997e a98d c0bf dada efaf 2866 d8bf
000003a0: feb6 407d a6c1 d83f ceab c771 9ade d93f
000003b0: 0692 2e33 5209 d83f c6d5 6a6c 547d c73f
000003c0: 0f57 aacc 2b84 b4bf c1bb 0646 21da d3bf
000003d0: 8e36 ff0a 1b5a d9bf 075d 07f3 4670 d73f
000003e0: 09e6 dd72 7bf9 c63f 2f77 735a 6420 d4bf
000003f0: e707 833f 0d6a cebf 2a9b 0d50 8e54 a43f
00000400: be99 b5b9 68c3 c13f d874 16c0 5ca9 a3bf
00000410: 7329 82cf f008 acbf 8d09 38b1 dfe0 da3f
00000420: 6011 fcc7 3d8d dc3f eebe 3bde ba96 dbbf
00000430: 64d4 f7f0 cc62 b6bf 4ce8 c5df ff28 adbf
00000440: fa4b ed25 ad88 b2bf 9bea b44c bfa5 8cbf
00000450: 31f6 4aac 90fb c13f 399b 601b 995a cfbf
00000460: ce06 d0c3 bc81 c73f 2cb3 9977 6402 c5bf
00000470: b731 d9d9 a2f9 b2bf 0ff5 739b 42de b8bf
00000480: 5d21 211c 2f5c 943f ec36 82f1 169b dcbf
00000490: e5d6 6c77 37dc d0bf c04d dcd9 0393 c33f
000004a0: 8594 a373 70b4 b03f 60ed 3757 419e e63f
000004b0: 46b4 f53c 9ded b83f 9aef 36a1 e87b d5bf
000004c0: 67a9 1506 e4ff ccbf 77d6 294b 1e35 d3bf
000004d0: e005 c771 9aca bf3f aad2 27f2 cdce da3f
000004e0: f535 7465 ff1e d0bf e2ea 647b 3586 c0bf
000004f0: 4867 f064 24d7 e1bf faaf ce12 866e b63f
00000500: ff44 a001 b75d d33f 7712 5339 051a dbbf
00000510: 018d c804 e25a df3f
